- {Date: '2021-04-16 16:31:56.788401'}
- {Model(s): "[RationalResNet(\n  (conv_layer_1): Conv2d(3, 16, kernel_size=(3, 3),\
    \ stride=(1, 1), padding=(1, 1), bias=False)\n  (batch_norm_1): BatchNorm2d(16,\
    \ eps=1e-05, momentum=0.1, affine=True, track_running_stats=True)\n  (rational):\
    \ Rational Activation Function (PYTORCH version A) of degrees (5, 4) running on\
    \ cuda\n  (layer1): Sequential(\n    (0): RationalBasicBlock(\n      (conv_layer_1):\
    \ Conv2d(16, 16, kernel_size=(3, 3), stride=(1, 1), padding=(1, 1), bias=False)\n\
    \      (batch_norm_1): BatchNorm2d(16, eps=1e-05, momentum=0.1, affine=True, track_running_stats=True)\n\
    \      (rational): Rational Activation Function (PYTORCH version A) of degrees\
    \ (5, 4) running on cuda\n      (conv_layer_2): Conv2d(16, 16, kernel_size=(3,\
    \ 3), stride=(1, 1), padding=(1, 1), bias=False)\n      (batch_norm_2): BatchNorm2d(16,\
    \ eps=1e-05, momentum=0.1, affine=True, track_running_stats=True)\n      (rational_2):\
    \ Rational Activation Function (PYTORCH version A) of degrees (5, 4) running on\
    \ cuda\n      (shortcut): Sequential()\n    )\n    (1): RationalBasicBlock(\n\
    \      (conv_layer_1): Conv2d(16, 16, kernel_size=(3, 3), stride=(1, 1), padding=(1,\
    \ 1), bias=False)\n      (batch_norm_1): BatchNorm2d(16, eps=1e-05, momentum=0.1,\
    \ affine=True, track_running_stats=True)\n      (rational): Rational Activation\
    \ Function (PYTORCH version A) of degrees (5, 4) running on cuda\n      (conv_layer_2):\
    \ Conv2d(16, 16, kernel_size=(3, 3), stride=(1, 1), padding=(1, 1), bias=False)\n\
    \      (batch_norm_2): BatchNorm2d(16, eps=1e-05, momentum=0.1, affine=True, track_running_stats=True)\n\
    \      (rational_2): Rational Activation Function (PYTORCH version A) of degrees\
    \ (5, 4) running on cuda\n      (shortcut): Sequential()\n    )\n    (2): RationalBasicBlock(\n\
    \      (conv_layer_1): Conv2d(16, 16, kernel_size=(3, 3), stride=(1, 1), padding=(1,\
    \ 1), bias=False)\n      (batch_norm_1): BatchNorm2d(16, eps=1e-05, momentum=0.1,\
    \ affine=True, track_running_stats=True)\n      (rational): Rational Activation\
    \ Function (PYTORCH version A) of degrees (5, 4) running on cuda\n      (conv_layer_2):\
    \ Conv2d(16, 16, kernel_size=(3, 3), stride=(1, 1), padding=(1, 1), bias=False)\n\
    \      (batch_norm_2): BatchNorm2d(16, eps=1e-05, momentum=0.1, affine=True, track_running_stats=True)\n\
    \      (rational_2): Rational Activation Function (PYTORCH version A) of degrees\
    \ (5, 4) running on cuda\n      (shortcut): Sequential()\n    )\n  )\n  (layer2):\
    \ Sequential(\n    (0): RationalBasicBlock(\n      (conv_layer_1): Conv2d(16,\
    \ 32, kernel_size=(3, 3), stride=(2, 2), padding=(1, 1), bias=False)\n      (batch_norm_1):\
    \ BatchNorm2d(32, eps=1e-05, momentum=0.1, affine=True, track_running_stats=True)\n\
    \      (rational): Rational Activation Function (PYTORCH version A) of degrees\
    \ (5, 4) running on cuda\n      (conv_layer_2): Conv2d(32, 32, kernel_size=(3,\
    \ 3), stride=(1, 1), padding=(1, 1), bias=False)\n      (batch_norm_2): BatchNorm2d(32,\
    \ eps=1e-05, momentum=0.1, affine=True, track_running_stats=True)\n      (rational_2):\
    \ Rational Activation Function (PYTORCH version A) of degrees (5, 4) running on\
    \ cuda\n      (shortcut): Sequential(\n        (0): Conv2d(16, 32, kernel_size=(1,\
    \ 1), stride=(2, 2), bias=False)\n        (1): BatchNorm2d(32, eps=1e-05, momentum=0.1,\
    \ affine=True, track_running_stats=True)\n      )\n    )\n    (1): RationalBasicBlock(\n\
    \      (conv_layer_1): Conv2d(32, 32, kernel_size=(3, 3), stride=(1, 1), padding=(1,\
    \ 1), bias=False)\n      (batch_norm_1): BatchNorm2d(32, eps=1e-05, momentum=0.1,\
    \ affine=True, track_running_stats=True)\n      (rational): Rational Activation\
    \ Function (PYTORCH version A) of degrees (5, 4) running on cuda\n      (conv_layer_2):\
    \ Conv2d(32, 32, kernel_size=(3, 3), stride=(1, 1), padding=(1, 1), bias=False)\n\
    \      (batch_norm_2): BatchNorm2d(32, eps=1e-05, momentum=0.1, affine=True, track_running_stats=True)\n\
    \      (rational_2): Rational Activation Function (PYTORCH version A) of degrees\
    \ (5, 4) running on cuda\n      (shortcut): Sequential()\n    )\n    (2): RationalBasicBlock(\n\
    \      (conv_layer_1): Conv2d(32, 32, kernel_size=(3, 3), stride=(1, 1), padding=(1,\
    \ 1), bias=False)\n      (batch_norm_1): BatchNorm2d(32, eps=1e-05, momentum=0.1,\
    \ affine=True, track_running_stats=True)\n      (rational): Rational Activation\
    \ Function (PYTORCH version A) of degrees (5, 4) running on cuda\n      (conv_layer_2):\
    \ Conv2d(32, 32, kernel_size=(3, 3), stride=(1, 1), padding=(1, 1), bias=False)\n\
    \      (batch_norm_2): BatchNorm2d(32, eps=1e-05, momentum=0.1, affine=True, track_running_stats=True)\n\
    \      (rational_2): Rational Activation Function (PYTORCH version A) of degrees\
    \ (5, 4) running on cuda\n      (shortcut): Sequential()\n    )\n  )\n  (layer3):\
    \ Sequential(\n    (0): RationalBasicBlock(\n      (conv_layer_1): Conv2d(32,\
    \ 64, kernel_size=(3, 3), stride=(2, 2), padding=(1, 1), bias=False)\n      (batch_norm_1):\
    \ BatchNorm2d(64, eps=1e-05, momentum=0.1, affine=True, track_running_stats=True)\n\
    \      (rational): Rational Activation Function (PYTORCH version A) of degrees\
    \ (5, 4) running on cuda\n      (conv_layer_2): Conv2d(64, 64, kernel_size=(3,\
    \ 3), stride=(1, 1), padding=(1, 1), bias=False)\n      (batch_norm_2): BatchNorm2d(64,\
    \ eps=1e-05, momentum=0.1, affine=True, track_running_stats=True)\n      (rational_2):\
    \ Rational Activation Function (PYTORCH version A) of degrees (5, 4) running on\
    \ cuda\n      (shortcut): Sequential(\n        (0): Conv2d(32, 64, kernel_size=(1,\
    \ 1), stride=(2, 2), bias=False)\n        (1): BatchNorm2d(64, eps=1e-05, momentum=0.1,\
    \ affine=True, track_running_stats=True)\n      )\n    )\n    (1): RationalBasicBlock(\n\
    \      (conv_layer_1): Conv2d(64, 64, kernel_size=(3, 3), stride=(1, 1), padding=(1,\
    \ 1), bias=False)\n      (batch_norm_1): BatchNorm2d(64, eps=1e-05, momentum=0.1,\
    \ affine=True, track_running_stats=True)\n      (rational): Rational Activation\
    \ Function (PYTORCH version A) of degrees (5, 4) running on cuda\n      (conv_layer_2):\
    \ Conv2d(64, 64, kernel_size=(3, 3), stride=(1, 1), padding=(1, 1), bias=False)\n\
    \      (batch_norm_2): BatchNorm2d(64, eps=1e-05, momentum=0.1, affine=True, track_running_stats=True)\n\
    \      (rational_2): Rational Activation Function (PYTORCH version A) of degrees\
    \ (5, 4) running on cuda\n      (shortcut): Sequential()\n    )\n    (2): RationalBasicBlock(\n\
    \      (conv_layer_1): Conv2d(64, 64, kernel_size=(3, 3), stride=(1, 1), padding=(1,\
    \ 1), bias=False)\n      (batch_norm_1): BatchNorm2d(64, eps=1e-05, momentum=0.1,\
    \ affine=True, track_running_stats=True)\n      (rational): Rational Activation\
    \ Function (PYTORCH version A) of degrees (5, 4) running on cuda\n      (conv_layer_2):\
    \ Conv2d(64, 64, kernel_size=(3, 3), stride=(1, 1), padding=(1, 1), bias=False)\n\
    \      (batch_norm_2): BatchNorm2d(64, eps=1e-05, momentum=0.1, affine=True, track_running_stats=True)\n\
    \      (rational_2): Rational Activation Function (PYTORCH version A) of degrees\
    \ (5, 4) running on cuda\n      (shortcut): Sequential()\n    )\n  )\n  (avgpool):\
    \ AdaptiveAvgPool2d(output_size=(1, 1))\n  (fc): Linear(in_features=64, out_features=10,\
    \ bias=True)\n)]"}
- {Dataset: SVHN}
- {Batch Size: '128'}
- {Learning Rate: '0.01'}
- {Epochs: '3'}
