Sequential(
  (0): BasicBlock(
    (conv_layer_1): Conv2d(16, 16, kernel_size=(3, 3), stride=(1, 1), padding=(1, 1), bias=False)
    (batch_norm_1): BatchNorm2d(16, eps=1e-05, momentum=0.1, affine=True, track_running_stats=True)
    (relu): ReLU(inplace=True)
    (conv_layer_2): Conv2d(16, 16, kernel_size=(3, 3), stride=(1, 1), padding=(1, 1), bias=False)
    (batch_norm_2): BatchNorm2d(16, eps=1e-05, momentum=0.1, affine=True, track_running_stats=True)
    (shortcut): Sequential()
  )
  (1): BasicBlock(
    (conv_layer_1): Conv2d(16, 16, kernel_size=(3, 3), stride=(1, 1), padding=(1, 1), bias=False)
    (batch_norm_1): BatchNorm2d(16, eps=1e-05, momentum=0.1, affine=True, track_running_stats=True)
    (relu): ReLU(inplace=True)
    (conv_layer_2): Conv2d(16, 16, kernel_size=(3, 3), stride=(1, 1), padding=(1, 1), bias=False)
    (batch_norm_2): BatchNorm2d(16, eps=1e-05, momentum=0.1, affine=True, track_running_stats=True)
    (shortcut): Sequential()
  )
  (2): BasicBlock(
    (conv_layer_1): Conv2d(16, 16, kernel_size=(3, 3), stride=(1, 1), padding=(1, 1), bias=False)
    (batch_norm_1): BatchNorm2d(16, eps=1e-05, momentum=0.1, affine=True, track_running_stats=True)
    (relu): ReLU(inplace=True)
    (conv_layer_2): Conv2d(16, 16, kernel_size=(3, 3), stride=(1, 1), padding=(1, 1), bias=False)
    (batch_norm_2): BatchNorm2d(16, eps=1e-05, momentum=0.1, affine=True, track_running_stats=True)
    (shortcut): Sequential()
  )
)
Sequential(
  (0): BasicBlock(
    (conv_layer_1): Conv2d(16, 32, kernel_size=(3, 3), stride=(2, 2), padding=(1, 1), bias=False)
    (batch_norm_1): BatchNorm2d(32, eps=1e-05, momentum=0.1, affine=True, track_running_stats=True)
    (relu): ReLU(inplace=True)
    (conv_layer_2): Conv2d(32, 32, kernel_size=(3, 3), stride=(1, 1), padding=(1, 1), bias=False)
    (batch_norm_2): BatchNorm2d(32, eps=1e-05, momentum=0.1, affine=True, track_running_stats=True)
    (shortcut): Sequential(
      (0): Conv2d(16, 32, kernel_size=(1, 1), stride=(2, 2), bias=False)
      (1): BatchNorm2d(32, eps=1e-05, momentum=0.1, affine=True, track_running_stats=True)
    )
  )
  (1): BasicBlock(
    (conv_layer_1): Conv2d(32, 32, kernel_size=(3, 3), stride=(1, 1), padding=(1, 1), bias=False)
    (batch_norm_1): BatchNorm2d(32, eps=1e-05, momentum=0.1, affine=True, track_running_stats=True)
    (relu): ReLU(inplace=True)
    (conv_layer_2): Conv2d(32, 32, kernel_size=(3, 3), stride=(1, 1), padding=(1, 1), bias=False)
    (batch_norm_2): BatchNorm2d(32, eps=1e-05, momentum=0.1, affine=True, track_running_stats=True)
    (shortcut): Sequential()
  )
  (2): BasicBlock(
    (conv_layer_1): Conv2d(32, 32, kernel_size=(3, 3), stride=(1, 1), padding=(1, 1), bias=False)
    (batch_norm_1): BatchNorm2d(32, eps=1e-05, momentum=0.1, affine=True, track_running_stats=True)
    (relu): ReLU(inplace=True)
    (conv_layer_2): Conv2d(32, 32, kernel_size=(3, 3), stride=(1, 1), padding=(1, 1), bias=False)
    (batch_norm_2): BatchNorm2d(32, eps=1e-05, momentum=0.1, affine=True, track_running_stats=True)
    (shortcut): Sequential()
  )
)
Sequential(
  (0): BasicBlock(
    (conv_layer_1): Conv2d(32, 64, kernel_size=(3, 3), stride=(2, 2), padding=(1, 1), bias=False)
    (batch_norm_1): BatchNorm2d(64, eps=1e-05, momentum=0.1, affine=True, track_running_stats=True)
    (relu): ReLU(inplace=True)
    (conv_layer_2): Conv2d(64, 64, kernel_size=(3, 3), stride=(1, 1), padding=(1, 1), bias=False)
    (batch_norm_2): BatchNorm2d(64, eps=1e-05, momentum=0.1, affine=True, track_running_stats=True)
    (shortcut): Sequential(
      (0): Conv2d(32, 64, kernel_size=(1, 1), stride=(2, 2), bias=False)
      (1): BatchNorm2d(64, eps=1e-05, momentum=0.1, affine=True, track_running_stats=True)
    )
  )
  (1): BasicBlock(
    (conv_layer_1): Conv2d(64, 64, kernel_size=(3, 3), stride=(1, 1), padding=(1, 1), bias=False)
    (batch_norm_1): BatchNorm2d(64, eps=1e-05, momentum=0.1, affine=True, track_running_stats=True)
    (relu): ReLU(inplace=True)
    (conv_layer_2): Conv2d(64, 64, kernel_size=(3, 3), stride=(1, 1), padding=(1, 1), bias=False)
    (batch_norm_2): BatchNorm2d(64, eps=1e-05, momentum=0.1, affine=True, track_running_stats=True)
    (shortcut): Sequential()
  )
  (2): BasicBlock(
    (conv_layer_1): Conv2d(64, 64, kernel_size=(3, 3), stride=(1, 1), padding=(1, 1), bias=False)
    (batch_norm_1): BatchNorm2d(64, eps=1e-05, momentum=0.1, affine=True, track_running_stats=True)
    (relu): ReLU(inplace=True)
    (conv_layer_2): Conv2d(64, 64, kernel_size=(3, 3), stride=(1, 1), padding=(1, 1), bias=False)
    (batch_norm_2): BatchNorm2d(64, eps=1e-05, momentum=0.1, affine=True, track_running_stats=True)
    (shortcut): Sequential()
  )
)
Sequential(
  (0): RationalBasicBlock(
    (conv_layer_1): Conv2d(16, 16, kernel_size=(3, 3), stride=(1, 1), padding=(1, 1), bias=False)
    (batch_norm_1): BatchNorm2d(16, eps=1e-05, momentum=0.1, affine=True, track_running_stats=True)
    (rational): Rational Activation Function (PYTORCH version A) of degrees (5, 4) running on cuda
    cuda:0: 0x7f8dff0b2410
    (conv_layer_2): Conv2d(16, 16, kernel_size=(3, 3), stride=(1, 1), padding=(1, 1), bias=False)
    (batch_norm_2): BatchNorm2d(16, eps=1e-05, momentum=0.1, affine=True, track_running_stats=True)
    (rational_2): Rational Activation Function (PYTORCH version A) of degrees (5, 4) running on cuda
    cuda:0: 0x7f8dfe793fa0
    (shortcut): Sequential()
  )
  (1): RationalBasicBlock(
    (conv_layer_1): Conv2d(16, 16, kernel_size=(3, 3), stride=(1, 1), padding=(1, 1), bias=False)
    (batch_norm_1): BatchNorm2d(16, eps=1e-05, momentum=0.1, affine=True, track_running_stats=True)
    (rational): Rational Activation Function (PYTORCH version A) of degrees (5, 4) running on cuda
    cuda:0: 0x7f8dfe79b550
    (conv_layer_2): Conv2d(16, 16, kernel_size=(3, 3), stride=(1, 1), padding=(1, 1), bias=False)
    (batch_norm_2): BatchNorm2d(16, eps=1e-05, momentum=0.1, affine=True, track_running_stats=True)
    (rational_2): Rational Activation Function (PYTORCH version A) of degrees (5, 4) running on cuda
    cuda:0: 0x7f8dfe79b9b0
    (shortcut): Sequential()
  )
  (2): RationalBasicBlock(
    (conv_layer_1): Conv2d(16, 16, kernel_size=(3, 3), stride=(1, 1), padding=(1, 1), bias=False)
    (batch_norm_1): BatchNorm2d(16, eps=1e-05, momentum=0.1, affine=True, track_running_stats=True)
    (rational): Rational Activation Function (PYTORCH version A) of degrees (5, 4) running on cuda
    cuda:0: 0x7f8dfe79be60
    (conv_layer_2): Conv2d(16, 16, kernel_size=(3, 3), stride=(1, 1), padding=(1, 1), bias=False)
    (batch_norm_2): BatchNorm2d(16, eps=1e-05, momentum=0.1, affine=True, track_running_stats=True)
    (rational_2): Rational Activation Function (PYTORCH version A) of degrees (5, 4) running on cuda
    cuda:0: 0x7f8dfe7a6370
    (shortcut): Sequential()
  )
)
Sequential(
  (0): RationalBasicBlock(
    (conv_layer_1): Conv2d(16, 32, kernel_size=(3, 3), stride=(2, 2), padding=(1, 1), bias=False)
    (batch_norm_1): BatchNorm2d(32, eps=1e-05, momentum=0.1, affine=True, track_running_stats=True)
    (rational): Rational Activation Function (PYTORCH version A) of degrees (5, 4) running on cuda
    cuda:0: 0x7f8dfe7a6780
    (conv_layer_2): Conv2d(32, 32, kernel_size=(3, 3), stride=(1, 1), padding=(1, 1), bias=False)
    (batch_norm_2): BatchNorm2d(32, eps=1e-05, momentum=0.1, affine=True, track_running_stats=True)
    (rational_2): Rational Activation Function (PYTORCH version A) of degrees (5, 4) running on cuda
    cuda:0: 0x7f8dfe7a6c30
    (shortcut): Sequential(
      (0): Conv2d(16, 32, kernel_size=(1, 1), stride=(2, 2), bias=False)
      (1): BatchNorm2d(32, eps=1e-05, momentum=0.1, affine=True, track_running_stats=True)
    )
  )
  (1): RationalBasicBlock(
    (conv_layer_1): Conv2d(32, 32, kernel_size=(3, 3), stride=(1, 1), padding=(1, 1), bias=False)
    (batch_norm_1): BatchNorm2d(32, eps=1e-05, momentum=0.1, affine=True, track_running_stats=True)
    (rational): Rational Activation Function (PYTORCH version A) of degrees (5, 4) running on cuda
    cuda:0: 0x7f8dfd530190
    (conv_layer_2): Conv2d(32, 32, kernel_size=(3, 3), stride=(1, 1), padding=(1, 1), bias=False)
    (batch_norm_2): BatchNorm2d(32, eps=1e-05, momentum=0.1, affine=True, track_running_stats=True)
    (rational_2): Rational Activation Function (PYTORCH version A) of degrees (5, 4) running on cuda
    cuda:0: 0x7f8dfd530780
    (shortcut): Sequential()
  )
  (2): RationalBasicBlock(
    (conv_layer_1): Conv2d(32, 32, kernel_size=(3, 3), stride=(1, 1), padding=(1, 1), bias=False)
    (batch_norm_1): BatchNorm2d(32, eps=1e-05, momentum=0.1, affine=True, track_running_stats=True)
    (rational): Rational Activation Function (PYTORCH version A) of degrees (5, 4) running on cuda
    cuda:0: 0x7f8dfd530c80
    (conv_layer_2): Conv2d(32, 32, kernel_size=(3, 3), stride=(1, 1), padding=(1, 1), bias=False)
    (batch_norm_2): BatchNorm2d(32, eps=1e-05, momentum=0.1, affine=True, track_running_stats=True)
    (rational_2): Rational Activation Function (PYTORCH version A) of degrees (5, 4) running on cuda
    cuda:0: 0x7f8dfd53d190
    (shortcut): Sequential()
  )
)
Sequential(
  (0): RationalBasicBlock(
    (conv_layer_1): Conv2d(32, 64, kernel_size=(3, 3), stride=(2, 2), padding=(1, 1), bias=False)
    (batch_norm_1): BatchNorm2d(64, eps=1e-05, momentum=0.1, affine=True, track_running_stats=True)
    (rational): Rational Activation Function (PYTORCH version A) of degrees (5, 4) running on cuda
    cuda:0: 0x7f8dfd53d5a0
    (conv_layer_2): Conv2d(64, 64, kernel_size=(3, 3), stride=(1, 1), padding=(1, 1), bias=False)
    (batch_norm_2): BatchNorm2d(64, eps=1e-05, momentum=0.1, affine=True, track_running_stats=True)
    (rational_2): Rational Activation Function (PYTORCH version A) of degrees (5, 4) running on cuda
    cuda:0: 0x7f8dfd53da50
    (shortcut): Sequential(
      (0): Conv2d(32, 64, kernel_size=(1, 1), stride=(2, 2), bias=False)
      (1): BatchNorm2d(64, eps=1e-05, momentum=0.1, affine=True, track_running_stats=True)
    )
  )
  (1): RationalBasicBlock(
    (conv_layer_1): Conv2d(64, 64, kernel_size=(3, 3), stride=(1, 1), padding=(1, 1), bias=False)
    (batch_norm_1): BatchNorm2d(64, eps=1e-05, momentum=0.1, affine=True, track_running_stats=True)
    (rational): Rational Activation Function (PYTORCH version A) of degrees (5, 4) running on cuda
    cuda:0: 0x7f8dfd53df00
    (conv_layer_2): Conv2d(64, 64, kernel_size=(3, 3), stride=(1, 1), padding=(1, 1), bias=False)
    (batch_norm_2): BatchNorm2d(64, eps=1e-05, momentum=0.1, affine=True, track_running_stats=True)
    (rational_2): Rational Activation Function (PYTORCH version A) of degrees (5, 4) running on cuda
    cuda:0: 0x7f8dfd54a5f0
    (shortcut): Sequential()
  )
  (2): RationalBasicBlock(
    (conv_layer_1): Conv2d(64, 64, kernel_size=(3, 3), stride=(1, 1), padding=(1, 1), bias=False)
    (batch_norm_1): BatchNorm2d(64, eps=1e-05, momentum=0.1, affine=True, track_running_stats=True)
    (rational): Rational Activation Function (PYTORCH version A) of degrees (5, 4) running on cuda
    cuda:0: 0x7f8dfd54aaa0
    (conv_layer_2): Conv2d(64, 64, kernel_size=(3, 3), stride=(1, 1), padding=(1, 1), bias=False)
    (batch_norm_2): BatchNorm2d(64, eps=1e-05, momentum=0.1, affine=True, track_running_stats=True)
    (rational_2): Rational Activation Function (PYTORCH version A) of degrees (5, 4) running on cuda
    cuda:0: 0x7f8dfd54af00
    (shortcut): Sequential()
  )
)
Sequential(
  (0): RationalBasicBlock(
    (conv_layer_1): Conv2d(16, 16, kernel_size=(3, 3), stride=(1, 1), padding=(1, 1), bias=False)
    (batch_norm_1): BatchNorm2d(16, eps=1e-05, momentum=0.1, affine=True, track_running_stats=True)
    (softmax): Softmax(dim=0)
    (rational_expert_group_1): Sequential(
      (0): Rational Activation Function (PYTORCH version A) of degrees (5, 4) running on cuda
      cuda:0: 0x7f8dfd556dc0
      (1): Rational Activation Function (PYTORCH version A) of degrees (5, 4) running on cuda
      cuda:0: 0x7f8dfd5654b0
      (2): Rational Activation Function (PYTORCH version A) of degrees (5, 4) running on cuda
…
      (0): Rational Activation Function (PYTORCH version A) of degrees (5, 4) running on cuda
      cuda:0: 0x7f8dfd5168c0
      (1): Rational Activation Function (PYTORCH version A) of degrees (5, 4) running on cuda
      cuda:0: 0x7f8dfd516820
      (2): Rational Activation Function (PYTORCH version A) of degrees (5, 4) running on cuda
      cuda:0: 0x7f8dfd5167d0
      (3): Rational Activation Function (PYTORCH version A) of degrees (5, 4) running on cuda
      cuda:0: 0x7f8dfd516aa0
      (4): Rational Activation Function (PYTORCH version A) of degrees (5, 4) running on cuda
      cuda:0: 0x7f8dfd516e60
    )
    (conv_layer_2): Conv2d(32, 32, kernel_size=(3, 3), stride=(1, 1), padding=(1, 1), bias=False)
    (batch_norm_2): BatchNorm2d(32, eps=1e-05, momentum=0.1, affine=True, track_running_stats=True)
    (shortcut): Sequential(
      (0): Conv2d(16, 32, kernel_size=(1, 1), stride=(2, 2), bias=False)
      (1): BatchNorm2d(32, eps=1e-05, momentum=0.1, affine=True, track_running_stats=True)
    )
  )
  (1): RationalBasicBlock(
    (conv_layer_1): Conv2d(32, 32, kernel_size=(3, 3), stride=(1, 1), padding=(1, 1), bias=False)
    (batch_norm_1): BatchNorm2d(32, eps=1e-05, momentum=0.1, affine=True, track_running_stats=True)
    (softmax): Softmax(dim=0)
    (rational_expert_group_1): Sequential(
      (0): Rational Activation Function (PYTORCH version A) of degrees (5, 4) running on cuda
      cuda:0: 0x7f8dfd524370
      (1): Rational Activation Function (PYTORCH version A) of degrees (5, 4) running on cuda
      cuda:0: 0x7f8dfd524280
      (2): Rational Activation Function (PYTORCH version A) of degrees (5, 4) running on cuda
…
      (0): Rational Activation Function (PYTORCH version A) of degrees (5, 4) running on cuda
      cuda:0: 0x7f8dfd4c7cd0
      (1): Rational Activation Function (PYTORCH version A) of degrees (5, 4) running on cuda
      cuda:0: 0x7f8dfd4c7c80
      (2): Rational Activation Function (PYTORCH version A) of degrees (5, 4) running on cuda
      cuda:0: 0x7f8dfd4c7d70
      (3): Rational Activation Function (PYTORCH version A) of degrees (5, 4) running on cuda
      cuda:0: 0x7f8dfd4d43c0
      (4): Rational Activation Function (PYTORCH version A) of degrees (5, 4) running on cuda
      cuda:0: 0x7f8dfd4d42d0
    )
    (conv_layer_2): Conv2d(64, 64, kernel_size=(3, 3), stride=(1, 1), padding=(1, 1), bias=False)
    (batch_norm_2): BatchNorm2d(64, eps=1e-05, momentum=0.1, affine=True, track_running_stats=True)
    (shortcut): Sequential(
      (0): Conv2d(32, 64, kernel_size=(1, 1), stride=(2, 2), bias=False)
      (1): BatchNorm2d(64, eps=1e-05, momentum=0.1, affine=True, track_running_stats=True)
    )
  )
  (1): RationalBasicBlock(
    (conv_layer_1): Conv2d(64, 64, kernel_size=(3, 3), stride=(1, 1), padding=(1, 1), bias=False)
    (batch_norm_1): BatchNorm2d(64, eps=1e-05, momentum=0.1, affine=True, track_running_stats=True)
    (softmax): Softmax(dim=0)
    (rational_expert_group_1): Sequential(
      (0): Rational Activation Function (PYTORCH version A) of degrees (5, 4) running on cuda
      cuda:0: 0x7f8dfd4d41e0
      (1): Rational Activation Function (PYTORCH version A) of degrees (5, 4) running on cuda
      cuda:0: 0x7f8dfd4d4f00
      (2): Rational Activation Function (PYTORCH version A) of degrees (5, 4) running on cuda
…
