…
      (0): Rational Activation Function (PYTORCH version A) of degrees (5, 4) running on cuda
      cuda:0: 0x7fd738fb15f0
      (1): Rational Activation Function (PYTORCH version A) of degrees (5, 4) running on cuda
      cuda:0: 0x7fd738fb17d0
      (2): Rational Activation Function (PYTORCH version A) of degrees (5, 4) running on cuda
      cuda:0: 0x7fd738fb1c80
      (3): Rational Activation Function (PYTORCH version A) of degrees (5, 4) running on cuda
      cuda:0: 0x7fd738fb15a0
      (4): Rational Activation Function (PYTORCH version A) of degrees (5, 4) running on cuda
      cuda:0: 0x7fd738fbf1e0
    )
    (conv_layer_2): Conv2d(32, 32, kernel_size=(3, 3), stride=(1, 1), padding=(1, 1), bias=False)
    (batch_norm_2): BatchNorm2d(32, eps=1e-05, momentum=0.1, affine=True, track_running_stats=True)
    (shortcut): Sequential(
      (0): Conv2d(16, 32, kernel_size=(1, 1), stride=(2, 2), bias=False)
      (1): BatchNorm2d(32, eps=1e-05, momentum=0.1, affine=True, track_running_stats=True)
    )
  )
  (1): RationalBasicBlock(
    (conv_layer_1): Conv2d(32, 32, kernel_size=(3, 3), stride=(1, 1), padding=(1, 1), bias=False)
    (batch_norm_1): BatchNorm2d(32, eps=1e-05, momentum=0.1, affine=True, track_running_stats=True)
    (softmax): Softmax(dim=0)
    (rational_expert_group_1): Sequential(
      (0): Rational Activation Function (PYTORCH version A) of degrees (5, 4) running on cuda
      cuda:0: 0x7fd738fbf320
      (1): Rational Activation Function (PYTORCH version A) of degrees (5, 4) running on cuda
      cuda:0: 0x7fd738fbfc30
      (2): Rational Activation Function (PYTORCH version A) of degrees (5, 4) running on cuda
…
      (0): Rational Activation Function (PYTORCH version A) of degrees (5, 4) running on cuda
      cuda:0: 0x7fd738fd42d0
      (1): Rational Activation Function (PYTORCH version A) of degrees (5, 4) running on cuda
      cuda:0: 0x7fd738fd44b0
      (2): Rational Activation Function (PYTORCH version A) of degrees (5, 4) running on cuda
      cuda:0: 0x7fd738fd4aa0
      (3): Rational Activation Function (PYTORCH version A) of degrees (5, 4) running on cuda
      cuda:0: 0x7fd738fd4d20
      (4): Rational Activation Function (PYTORCH version A) of degrees (5, 4) running on cuda
      cuda:0: 0x7fd738fd4320
    )
    (conv_layer_2): Conv2d(64, 64, kernel_size=(3, 3), stride=(1, 1), padding=(1, 1), bias=False)
    (batch_norm_2): BatchNorm2d(64, eps=1e-05, momentum=0.1, affine=True, track_running_stats=True)
    (shortcut): Sequential(
      (0): Conv2d(32, 64, kernel_size=(1, 1), stride=(2, 2), bias=False)
      (1): BatchNorm2d(64, eps=1e-05, momentum=0.1, affine=True, track_running_stats=True)
    )
  )
  (1): RationalBasicBlock(
    (conv_layer_1): Conv2d(64, 64, kernel_size=(3, 3), stride=(1, 1), padding=(1, 1), bias=False)
    (batch_norm_1): BatchNorm2d(64, eps=1e-05, momentum=0.1, affine=True, track_running_stats=True)
    (softmax): Softmax(dim=0)
    (rational_expert_group_1): Sequential(
      (0): Rational Activation Function (PYTORCH version A) of degrees (5, 4) running on cuda
      cuda:0: 0x7fd738fd4230
      (1): Rational Activation Function (PYTORCH version A) of degrees (5, 4) running on cuda
      cuda:0: 0x7fd738fe8aa0
      (2): Rational Activation Function (PYTORCH version A) of degrees (5, 4) running on cuda
…
