…
      (0): Rational Activation Function (PYTORCH version A) of degrees (5, 4) running on cuda
      cuda:0: 0x7f20246fadc0
      (1): Rational Activation Function (PYTORCH version A) of degrees (5, 4) running on cuda
      cuda:0: 0x7f20246fae60
      (2): Rational Activation Function (PYTORCH version A) of degrees (5, 4) running on cuda
      cuda:0: 0x7f202470c550
      (3): Rational Activation Function (PYTORCH version A) of degrees (5, 4) running on cuda
      cuda:0: 0x7f202470c460
      (4): Rational Activation Function (PYTORCH version A) of degrees (5, 4) running on cuda
      cuda:0: 0x7f202470c410
    )
    (conv_layer_2): Conv2d(32, 32, kernel_size=(3, 3), stride=(1, 1), padding=(1, 1), bias=False)
    (batch_norm_2): BatchNorm2d(32, eps=1e-05, momentum=0.1, affine=True, track_running_stats=True)
    (shortcut): Sequential(
      (0): Conv2d(16, 32, kernel_size=(1, 1), stride=(2, 2), bias=False)
      (1): BatchNorm2d(32, eps=1e-05, momentum=0.1, affine=True, track_running_stats=True)
    )
  )
  (1): RationalBasicBlock(
    (conv_layer_1): Conv2d(32, 32, kernel_size=(3, 3), stride=(1, 1), padding=(1, 1), bias=False)
    (batch_norm_1): BatchNorm2d(32, eps=1e-05, momentum=0.1, affine=True, track_running_stats=True)
    (softmax): Softmax(dim=0)
    (rational_expert_group_1): Sequential(
      (0): Rational Activation Function (PYTORCH version A) of degrees (5, 4) running on cuda
      cuda:0: 0x7f202470c5a0
      (1): Rational Activation Function (PYTORCH version A) of degrees (5, 4) running on cuda
      cuda:0: 0x7f20247145f0
      (2): Rational Activation Function (PYTORCH version A) of degrees (5, 4) running on cuda
…
      (0): Rational Activation Function (PYTORCH version A) of degrees (5, 4) running on cuda
      cuda:0: 0x7f2024837e60
      (1): Rational Activation Function (PYTORCH version A) of degrees (5, 4) running on cuda
      cuda:0: 0x7f2024842140
      (2): Rational Activation Function (PYTORCH version A) of degrees (5, 4) running on cuda
      cuda:0: 0x7f20248425f0
      (3): Rational Activation Function (PYTORCH version A) of degrees (5, 4) running on cuda
      cuda:0: 0x7f2026f57960
      (4): Rational Activation Function (PYTORCH version A) of degrees (5, 4) running on cuda
      cuda:0: 0x7f2024842870
    )
    (conv_layer_2): Conv2d(64, 64, kernel_size=(3, 3), stride=(1, 1), padding=(1, 1), bias=False)
    (batch_norm_2): BatchNorm2d(64, eps=1e-05, momentum=0.1, affine=True, track_running_stats=True)
    (shortcut): Sequential(
      (0): Conv2d(32, 64, kernel_size=(1, 1), stride=(2, 2), bias=False)
      (1): BatchNorm2d(64, eps=1e-05, momentum=0.1, affine=True, track_running_stats=True)
    )
  )
  (1): RationalBasicBlock(
    (conv_layer_1): Conv2d(64, 64, kernel_size=(3, 3), stride=(1, 1), padding=(1, 1), bias=False)
    (batch_norm_1): BatchNorm2d(64, eps=1e-05, momentum=0.1, affine=True, track_running_stats=True)
    (softmax): Softmax(dim=0)
    (rational_expert_group_1): Sequential(
      (0): Rational Activation Function (PYTORCH version A) of degrees (5, 4) running on cuda
      cuda:0: 0x7f2024842be0
      (1): Rational Activation Function (PYTORCH version A) of degrees (5, 4) running on cuda
      cuda:0: 0x7f2024852870
      (2): Rational Activation Function (PYTORCH version A) of degrees (5, 4) running on cuda
…
