…
      (0): Rational Activation Function (PYTORCH version A) of degrees (5, 4) running on cuda
      cuda:0: 0x7ff8a3f27b90
      (1): Rational Activation Function (PYTORCH version A) of degrees (5, 4) running on cuda
      cuda:0: 0x7ff8a3f27be0
      (2): Rational Activation Function (PYTORCH version A) of degrees (5, 4) running on cuda
      cuda:0: 0x7ff8a3f77690
      (3): Rational Activation Function (PYTORCH version A) of degrees (5, 4) running on cuda
      cuda:0: 0x7ff8a3f776e0
      (4): Rational Activation Function (PYTORCH version A) of degrees (5, 4) running on cuda
      cuda:0: 0x7ff8a3f77960
    )
    (conv_layer_2): Conv2d(32, 32, kernel_size=(3, 3), stride=(1, 1), padding=(1, 1), bias=False)
    (batch_norm_2): BatchNorm2d(32, eps=1e-05, momentum=0.1, affine=True, track_running_stats=True)
    (shortcut): Sequential(
      (0): Conv2d(16, 32, kernel_size=(1, 1), stride=(2, 2), bias=False)
      (1): BatchNorm2d(32, eps=1e-05, momentum=0.1, affine=True, track_running_stats=True)
    )
  )
  (1): RationalBasicBlock(
    (conv_layer_1): Conv2d(32, 32, kernel_size=(3, 3), stride=(1, 1), padding=(1, 1), bias=False)
    (batch_norm_1): BatchNorm2d(32, eps=1e-05, momentum=0.1, affine=True, track_running_stats=True)
    (softmax): Softmax(dim=0)
    (rational_expert_group_1): Sequential(
      (0): Rational Activation Function (PYTORCH version A) of degrees (5, 4) running on cuda
      cuda:0: 0x7ff8a3f77820
      (1): Rational Activation Function (PYTORCH version A) of degrees (5, 4) running on cuda
      cuda:0: 0x7ff8a3f746e0
      (2): Rational Activation Function (PYTORCH version A) of degrees (5, 4) running on cuda
…
      (0): Rational Activation Function (PYTORCH version A) of degrees (5, 4) running on cuda
      cuda:0: 0x7ff8a3fa4280
      (1): Rational Activation Function (PYTORCH version A) of degrees (5, 4) running on cuda
      cuda:0: 0x7ff8a3fa41e0
      (2): Rational Activation Function (PYTORCH version A) of degrees (5, 4) running on cuda
      cuda:0: 0x7ff8a3fa4140
      (3): Rational Activation Function (PYTORCH version A) of degrees (5, 4) running on cuda
      cuda:0: 0x7ff8a3fa4a00
      (4): Rational Activation Function (PYTORCH version A) of degrees (5, 4) running on cuda
      cuda:0: 0x7ff8a3fa4a50
    )
    (conv_layer_2): Conv2d(64, 64, kernel_size=(3, 3), stride=(1, 1), padding=(1, 1), bias=False)
    (batch_norm_2): BatchNorm2d(64, eps=1e-05, momentum=0.1, affine=True, track_running_stats=True)
    (shortcut): Sequential(
      (0): Conv2d(32, 64, kernel_size=(1, 1), stride=(2, 2), bias=False)
      (1): BatchNorm2d(64, eps=1e-05, momentum=0.1, affine=True, track_running_stats=True)
    )
  )
  (1): RationalBasicBlock(
    (conv_layer_1): Conv2d(64, 64, kernel_size=(3, 3), stride=(1, 1), padding=(1, 1), bias=False)
    (batch_norm_1): BatchNorm2d(64, eps=1e-05, momentum=0.1, affine=True, track_running_stats=True)
    (softmax): Softmax(dim=0)
    (rational_expert_group_1): Sequential(
      (0): Rational Activation Function (PYTORCH version A) of degrees (5, 4) running on cuda
      cuda:0: 0x7ff8a3fa4c80
      (1): Rational Activation Function (PYTORCH version A) of degrees (5, 4) running on cuda
      cuda:0: 0x7ff8a3faea50
      (2): Rational Activation Function (PYTORCH version A) of degrees (5, 4) running on cuda
…
